tests/recommendation/android/app/src/main/assets/recommendation_cnn_i10o100.tflite (tflite, 556832 bytes, 10 tensors)

context_encoder_1/item_embedding_context/embeddings f4 [3953, 16]
0	0x3e1e147d	0.15437503
1	0x3d645708	0.055747062
2	0x3ea9abd7	0.33138916
3	0x3e556822	0.20840505
4	0xbd07ff26	-0.033202313
5	0x3d42c7fe	0.04755401
6	0xbd9d93c1	-0.076941974
7	0xbe3b1cce	-0.18272707
8	0x3e8ed33e	0.2789554
9	0x3e1a3524	0.15059334
10	0xbe3adfcb	-0.18249433
11	0xbdb190bb	-0.08670183
12	0xbd62aaf4	-0.055338815
13	0x3dc86344	0.097845584
14	0xbe0a8a0f	-0.13529228
15	0x3e6d66d7	0.23183762
16	0xbf08e7f1	-0.53478914
17	0x3f197fbd	0.5996054
18	0xbe33f1de	-0.17572734
19	0x3f031e38	0.51217985
20	0xbf30fd68	-0.6913667
21	0x3ec4f956	0.38471478
22	0x3d059a87	0.032618072
23	0x3ec14508	0.3774798
24	0xbc93c4c7	-0.018038167
25	0xbeccde40	-0.40013313
26	0xbde158c2	-0.11003257
27	0x3dbd9764	0.09257391
28	0x3ea64b26	0.3247921
29	0xbf5b1d71	-0.855918
30	0x3eac653a	0.3367098
31	0xbf35df0b	-0.7104346
32	0xbe6a2bcc	-0.2286827
33	0xbe2a9092	-0.16656712
34	0x3f010088	0.50391436
35	0xbe0be780	-0.13662529
36	0x3e523ec9	0.20531763
37	0xbdede9b6	-0.116168424
38	0xbd3e405a	-0.04644809
39	0x3ee36879	0.44415644
40	0x3dce9632	0.10087241
41	0x3ea5f7bc	0.3241557
42	0x3e8b13c6	0.27163523
43	0x3f048699	0.5176788
44	0x3e353aad	0.17698164
45	0xbf098567	-0.5371918
46	0x3de594c3	0.11210015
47	0x3e02cef7	0.12774263
48	0x3e7aa66a	0.24477544
49	0xbdef30ca	-0.11679228
50	0xbdc407b0	-0.09571779
51	0x3d5eacb3	0.054363918
52	0x3ea05b4a	0.31319648
53	0xbead7c5d	-0.33883944
54	0xbe5e6840	-0.21719456
55	0x3e333ea2	0.17504361
56	0x3e639828	0.22226012
57	0x3ec77d64	0.38962853
58	0xbd7362f3	-0.059420537
59	0xbe07daa7	-0.13267003
60	0x3e0f8f60	0.14019537
61	0xbe44479e	-0.19167945
62	0xbd55f149	-0.05223206
63	0x3cf3dfc1	0.02976978
64	0x3d786144	0.060639635
65	0xbf240676	-0.6407236
66	0xbec2e09f	-0.38061997
67	0x3df6de7f	0.120541565
68	0x3eaf0068	0.34179997
69	0x3e006430	0.12538218
70	0xbdf9b961	-0.12193561
71	0x3d4aa861	0.049476985
72	0xbf04d256	-0.5188345
73	0x3e0fab76	0.14030251
74	0xbd4ca3e5	-0.04996099
75	0x3f176158	0.5913291
76	0xbeb03713	-0.34417018
77	0x3dfe7ac6	0.12425761
78	0x3ec51801	0.38494876
79	0xbe0b26bc	-0.13588995
80	0x3e923a43	0.28560075
81	0xbf375172	-0.7160865
82	0x3ddff844	0.10936025
83	0x3e8ce044	0.2751485
84	0x3e2267f3	0.15859966
85	0xbe25d7d2	-0.1619561
86	0x3e88b51e	0.2670068
87	0xbd3c0ed5	-0.045912582
88	0x3e127b6b	0.14304893
89	0x3efc023a	0.4922045
90	0x3eb8fda5	0.36131015
91	0x3f04285a	0.5162407
92	0xbe14da2e	-0.14536354
93	0xbe0d6e3c	-0.13811582
94	0x3edf0363	0.4355727
95	0xbe91ba6f	-0.2846255
96	0x3d95b37f	0.07309627
97	0x3f1f14cc	0.6214111
98	0x3f672a7a	0.9029919
99	0xbed18686	-0.40922946
100	0xbe9e853e	-0.3096103
101	0x3d27079b	0.040778738
102	0xbe9f8924	-0.31159317
103	0x3daef0d7	0.0854203
104	0xbe8c3726	-0.27385825
105	0xbe5d4dc3	-0.21611695
106	0xbd237dc1	-0.03991485
107	0x3e3ad40c	0.18244952
108	0xbf490275	-0.78519374
109	0x3e16857f	0.14699362
110	0x3e347060	0.17620993
111	0x3d4bf28f	0.04979187
112	0x3ef88af8	0.48543525
113	0xbe807f59	-0.2509716
114	0x3ddec9f0	0.1087836
115	0x3e52f898	0.20602643
116	0x3ddbe7b8	0.10737556
117	0x3e0a1273	0.134836
118	0xbc2d9d33	-0.010596561
119	0x3d9917ce	0.074752435
120	0x3dfc242e	0.12311588
121	0xbe313c0c	-0.17308062
122	0x3dce950e	0.10087024
123	0x3e773070	0.24139571
124	0x3ea3e3a9	0.32009628
125	0x3e0449fa	0.12918845
126	0x3f140d60	0.5783291
127	0xbe2bde51	-0.16784026
128	0xbecf0f34	-0.40441287
129	0xbda36e46	-0.07980017
130	0xbd6487bb	-0.055793505
131	0xbef1142c	-0.47085702
132	0xbd5dacd7	-0.05411991
133	0x3e3033d2	0.17207268
134	0x3cdbb87b	0.026821366
135	0xbdb677a9	-0.08909542
136	0x3ea947f7	0.33062717
137	0x3eb42aa7	0.3518879
138	0x3c889011	0.016670259
139	0xbdcb927b	-0.09940048
140	0x3e16f8bb	0.1474332
141	0xbe803178	-0.25037742
142	0x3e6bcfef	0.23028539
143	0xbd475e79	-0.04867408
144	0xbedab856	-0.42718762
145	0xbea171f3	-0.3153225
146	0x3eb4d556	0.35319012
147	0xbe9e1fd5	-0.3088366
148	0x3d901f29	0.07037193
149	0x3dacdc35	0.08440439
150	0xbe61e169	-0.22058643
151	0xbeec3588	-0.4613459
152	0xbcf1a42d	-0.02949723
153	0x3f00a305	0.5024875
154	0x3f281ffa	0.6567379
155	0xbf00a90f	-0.5025796
156	0xbe986e2c	-0.29771554
157	0x3e9ee534	0.31034243
158	0x3e468430	0.19386363
159	0xbe766ce8	-0.24064982
160	0x3b9992a4	0.0046866704
161	0x3e3e84e3	0.1860538
162	0x3ea1dbfb	0.31613144
163	0xbea76069	-0.32690743
164	0x3ecba2a5	0.39772525
165	0x3e1a7680	0.15084267
166	0xbd333d0e	-0.0437594
167	0x3e738496	0.23781046
168	0xbad362a0	-0.0016127415
169	0xbc1167ec	-0.008874875
170	0x3eac1bc7	0.33614942
171	0x3e8a35a6	0.26994056
172	0xbdcb9a34	-0.09941521
173	0xbe02941a	-0.12751809
174	0x3e24f440	0.16108799
175	0x3e904632	0.28178555
176	0x3f2692ad	0.6506756
177	0x3ed4cea9	0.4156392
178	0xbe3a4447	-0.18190108
179	0xbe9f9e89	-0.3117564
180	0x3e022762	0.12710336
181	0x3decfabd	0.11571262
182	0x3e037635	0.12838061
183	0x3ead4660	0.33842754
184	0x3dfe418c	0.12414846
185	0x3d9f5a42	0.07780887
186	0x3e36054a	0.17775455
187	0xbb929574	-0.0044733826
188	0x3d475358	0.048663467
189	0xbe86bac8	-0.26314378
190	0x3ed6face	0.41988224
191	0xbe61da89	-0.22056021
192	0xbe5b7e84	-0.2143498
193	0xbcfae53d	-0.030626887
194	0xbcb33360	-0.021875083
195	0x3e0c88d2	0.13724068
196	0xbc8eaca1	-0.0174163
197	0xbea68aee	-0.3252787
198	0xbe5efc6f	-0.21775983
199	0xbcc57a9a	-0.024106313
200	0x3d9f9d0c	0.07793626
201	0xbc1dfd04	-0.009642843
202	0xbdcbdc9a	-0.09954186
203	0xbea40c78	-0.32040763
204	0xbd88f876	-0.06688015
205	0xbe8e4507	-0.2778704
206	0xbe184534	-0.14870149
207	0xbebf81de	-0.37403768
208	0xbe97870f	-0.2959523
209	0xbed9866f	-0.42485377
210	0x3ed02e46	0.40660304
211	0x3eb409c7	0.3516371
212	0x3e35ae26	0.17742214
213	0x3e0aaca5	0.13542421
214	0x3d9dec54	0.07711092
215	0x3e439055	0.19098027
216	0x3d3068d2	0.043068714
217	0xbd412103	-0.047150623
218	0x3e6a498f	0.22879623
219	0x3e7c33a9	0.24629082
220	0x3e4675be	0.19380853
221	0xbefcbfef	-0.49365184
222	0x3d029bf5	0.031887013
223	0xbeb20610	-0.3477025
224	0x3ebf0a68	0.37312627
225	0xbee113e3	-0.43960485
226	0xbe04afa6	-0.1295763
227	0xbe412098	-0.1886009
228	0x3e479e6d	0.19494028
229	0x3f267c53	0.65033454
230	0xbeeb8627	-0.46000788
231	0x3db4db1f	0.088308565
232	0x3e85f69c	0.2616471
233	0xbdd65132	-0.104647055
234	0x3d516f98	0.051131815
235	0x3ca5453c	0.020174615
236	0xbee7c076	-0.45264024
237	0x3ee72070	0.45141935
238	0x3ec71d15	0.38889375
239	0xbf022e34	-0.5085175
240	0xbe934f2f	-0.2877135
241	0xbe70d4ba	-0.23518649
242	0x3e8715fd	0.26383963
243	0x3e48d161	0.19611122
244	0x3e8b0277	0.27150318
245	0x3da831b9	0.08212609
246	0x3ea57850	0.32318354
247	0x3e27430d	0.16334172
248	0xbcfa1f1b	-0.03053241
249	0xbe9580ba	-0.29199773
250	0x3eb8ccdf	0.36093804
251	0xbd6dc27a	-0.058046795
252	0x3f2aed88	0.66768694
253	0x3ea7cf49	0.32775334
254	0xbe4d47ba	-0.20046893
255	0x3e3035d8	0.1720804

context_encoder_1/hidden_layer1/bias f4 [16]
0	0x3ff701a9	1.9297382
1	0xbdf35dba	-0.11883111
2	0x3ec01cca	0.37521964
3	0xbe87dadc	-0.26534164
4	0xbe9d0036	-0.30664223
5	0xbf32101e	-0.6955584
6	0xbc2ac18c	-0.010422122
7	0xbfb4c122	-1.412144
8	0xbef23d0a	-0.47312194
9	0x3ec39b6f	0.38204524
10	0xbf25519e	-0.6457766
11	0x3c38cf08	0.011279829
12	0xbfdd72ef	-1.73007
13	0x3ebcafd7	0.36852905
14	0x3f28f7de	0.66003215
15	0xbdd550bf	-0.10415792

context_encoder_1/hidden_layer0/bias f4 [16]
0	0xbf412d9b	-0.75460213
1	0xbf56a911	-0.83851725
2	0x3f7fb709	0.99888664
3	0x3e50e8c0	0.20401287
4	0x3e9d1e28	0.3068707
5	0x3f0d5ded	0.55221444
6	0xbfa69fb6	-1.301749
7	0x3f8707de	1.0549276
8	0xbea1e381	-0.31618884
9	0x3f0568e6	0.5211319
10	0xbdc1c460	-0.09461284
11	0xbf1f545c	-0.622381
12	0x3f847928	1.0349474
13	0x3ef63236	0.48085183
14	0xbf3a0f8d	-0.7267998
15	0x3e36c3ae	0.17848083

context_encoder_1/conv1d_3/bias f4 [64]
0	0xbdb22e2b	-0.08700212
1	0xbf64ec15	-0.8942273
2	0x3ec1d921	0.3786097
3	0x3eaad5e5	0.33366314
4	0xbf210ff1	-0.6291495
5	0xbe8aee47	-0.27134916
6	0xbeb5443b	-0.35403618
7	0xbf65d99c	-0.8978517
8	0xbf3788bc	-0.71693015
9	0xbf25be98	-0.6474395
10	0x3eccac47	0.39975187
11	0xbf05e833	-0.5230743
12	0xbf1847f6	-0.59484804
13	0xbe4b1e7f	-0.19835852
14	0xbf323d3f	-0.69624704
15	0xbefc9e78	-0.49339652
16	0x3d41b9e4	0.04729642
17	0xbda6d2ab	-0.081456505
18	0x3ee15617	0.44010994
19	0x3f1cd7b5	0.6126664
20	0xbe85c1a5	-0.26124302
21	0x3f85e9eb	1.0462011
22	0xbf83f685	-1.0309607
23	0xbe9c228a	-0.304951
24	0xbc61bace	-0.013777448
25	0xbe196f27	-0.14983808
26	0xbd52c5f0	-0.0514583
27	0x3f17f0b9	0.5935169
28	0x3f1749a0	0.5909672
29	0x3e7f3d62	0.2492576
30	0xbedb4be6	-0.42831343
31	0x3e0c8056	0.13720831
32	0xbe8c737d	-0.2743186
33	0x3f3952db	0.7239205
34	0xbefe7630	-0.49699545
35	0xbf191b15	-0.5980695
36	0x3ebae7d3	0.36504993
37	0xbe26ed62	-0.16301492
38	0xbeeda7ad	-0.4641699
39	0x3e65be97	0.22435986
40	0x3f226135	0.63429576
41	0x3ec1f900	0.37885284
42	0x3f444df7	0.76681465
43	0xbf0b3a49	-0.5438581
44	0xbea4e2b5	-0.32204214
45	0xbec81c8c	-0.3908428
46	0x3f155367	0.58330387
47	0xbefa2060	-0.48852825
48	0xbf2c4784	-0.67296624
49	0xbf4bdf5d	-0.796377
50	0xbf598214	-0.8496411
51	0xbf13c95b	-0.5772912
52	0xbcbda88f	-0.023151664
53	0xbf0b5e87	-0.5444111
54	0x3d1a257c	0.037633404
55	0xbea44e03	-0.32090768
56	0xbcf1cb73	-0.029515957
57	0xbd0437b4	-0.032279685
58	0xbe094c47	-0.13408004
59	0x3cca1da6	0.02467234
60	0x3ed49896	0.41522664
61	0x3edf2d48	0.43589234
62	0xbf0bec5c	-0.5465753
63	0xbe12d0af	-0.14337419

context_encoder_1/conv1d_2/bias f4 [32]
0	0xbf0f3e47	-0.559544
1	0x3ed81003	0.42199716
2	0x3f3287a1	0.69738203
3	0xbc1786c5	-0.00924844
4	0x3e84a755	0.25908914
5	0xbe2dd4cb	-0.16975705
6	0x3eed7f9d	0.46386424
7	0xbc5e576e	-0.01357065
8	0x3ef0a766	0.47002715
9	0xbc8f22ff	-0.017472742
10	0x3c9f8229	0.019471245
11	0x3dd9807c	0.106202096
12	0x3a5af9fb	0.000835329
13	0xbd256611	-0.04038054
14	0x3dd297d0	0.10282862
15	0xbb4665f2	-0.0030273166
16	0x3e8ead87	0.27866766
17	0xbd031b4b	-0.03200845
18	0xbe31a2d0	-0.17347264
19	0xbe844a88	-0.25838113
20	0xbbca6f50	-0.0061778203
21	0xbe75fd05	-0.240223
22	0x3dedece4	0.11617449
23	0x3dc5579d	0.096358515
24	0xbd85ad0e	-0.06527148
25	0x3eeacd5d	0.45859805
26	0xbb268b2a	-0.0025412538
27	0x3dccb525	0.09995488
28	0x3ce1c35b	0.027558973
29	0xbb0f704f	-0.002188701
30	0xbd6b56bb	-0.05745576
31	0xbc069bb8	-0.008215837

std.constant3 f4 [16, 64]
0	0xbd91a375	-0.07111255
1	0xbf1a7fdb	-0.6035134
2	0x4025795c	2.5855322
3	0x3f9710e7	1.1802033
4	0x3de07bff	0.109611504
5	0x3eaec0d0	0.3413148
6	0xbeceef10	-0.40416765
7	0x3f8b5a8b	1.0887007
8	0x3edb375a	0.42815667
9	0x3f8d6baf	1.1048487
10	0xbf5b53d0	-0.8567476
11	0x3f47b245	0.7800639
12	0x3f326783	0.69689196
13	0x3f08517d	0.5324934
14	0x3e873282	0.26405722
15	0x3ece85b8	0.40336394
16	0x3f2a92a6	0.6663002
17	0x3f05b7a9	0.5223337
18	0x3f806827	1.0031785
19	0x3e8470dd	0.25867358
20	0xbd66efc1	-0.05638099
21	0x3f2c640b	0.67340153
22	0x3f2d2bdd	0.67645055
23	0x3f5ed836	0.8704866
24	0xc011421e	-2.2696605
25	0xbf90fae9	-1.1326572
26	0x3ef269d9	0.4734638
27	0x3f0df9e6	0.5545944
28	0xbf561930	-0.83632183
29	0xbf4317fb	-0.76208466
30	0x3e07fa50	0.1327908
31	0x3e2666e4	0.16250187
32	0x3f481ab3	0.7816574
33	0xbdc128b6	-0.09431593
34	0x3f1609fc	0.58608985
35	0x3f0214d0	0.5081301
36	0x3f806159	1.0029708
37	0x3a276545	0.0006385635
38	0x3f1600a0	0.58594704
39	0x3f6fc292	0.93656266
40	0x3f1af6b1	0.6053267
41	0x3f3c5cc5	0.73579055
42	0x401dd4e1	2.466118
43	0xbffc0aae	-1.9690759
44	0x40313d64	2.769372
45	0x3f067d3e	0.52534854
46	0x3fc13c88	1.5096598
47	0x3fd775c8	1.6832819
48	0x3e1e7f73	0.15478306
49	0x3f205697	0.62632126
50	0x3f2a2928	0.6646905
51	0x3fe55953	1.7917885
52	0x3ea3d252	0.319964
53	0x3fc8a0ac	1.5674033
54	0x3de72305	0.11285976
55	0x3f05b0c3	0.5222284
56	0x3ef3cf9b	0.47619328
57	0x3f80492a	1.0022328
58	0x3ed866fc	0.4226607
59	0xbe7a00c3	-0.24414353
60	0x3f83d72d	1.0300041
61	0x3f886ece	1.0658815
62	0x3fe2e0a6	1.7724807
63	0x3ef1d690	0.4723401
64	0xbf4adf77	-0.7924723
65	0x3ef5476f	0.47906062
66	0xbf5ae7f1	-0.85510164
67	0xbe8134c7	-0.25235578
68	0xbe493b69	-0.1965157
69	0x3eb8f51a	0.36124498
70	0x3d9b40f7	0.075807504
71	0xbe670f14	-0.22564346
72	0xbeedd98f	-0.46455047
73	0xbf15ec4c	-0.58563685
74	0x3dab9f4d	0.083799936
75	0xbe0cafcd	-0.13738938
76	0xbd82673b	-0.06367346
77	0xbf4f551f	-0.8098926
78	0xbce79608	-0.028269783
79	0xba1d77a8	-0.0006006905
80	0xbf3267a2	-0.6968938
81	0x3eca949d	0.39566508
82	0xbe9f6b53	-0.3113657
83	0x3dfae77d	0.12251184
84	0x3f2ea6ef	0.6822347
85	0xbef9bdfe	-0.48777765
86	0x3deaf057	0.114716224
87	0x3f9e0fcc	1.2348571
88	0x3f12618e	0.57180107
89	0x3f0acdb8	0.5422015
90	0x3f8437aa	1.0329487
91	0x3d86e184	0.065859824
92	0x3f40bec4	0.75291085
93	0x3e6bc282	0.23023418
94	0xbd989e96	-0.07452123
95	0xbd31b1ed	-0.043382574
96	0x3ebcd148	0.3687842
97	0xbc266365	-0.010155533
98	0x3e3c3455	0.18379338
99	0x400a11fa	2.1573472
100	0x3dd7251a	0.105051234
101	0xbdd3ff72	-0.10351457
102	0x3e030639	0.12795343
103	0x3de409a1	0.11134649
104	0x3d230c4d	0.039806653
105	0x3e5ea082	0.21740916
106	0x3e8ed212	0.27894646
107	0xbde53bba	-0.111930326
108	0xbeff6d4d	-0.49888077
109	0x3e91a0dd	0.2844304
110	0x3e0f36ae	0.13985702
111	0xbee3e3ef	-0.44509837
112	0x3e41e0e7	0.1893345
113	0xbc74892c	-0.014925282
114	0x3d96f0fc	0.07370183
115	0xbd809ae0	-0.0627954
116	0xbc0c3586	-0.008557683
117	0xbeff7f0c	-0.49901617
118	0x3e6ccfb6	0.2312611
119	0xbde6937e	-0.11258601
120	0x3ea2d779	0.31805018
121	0xbf01455b	-0.50496453
122	0xbe49cfa8	-0.19708121
123	0xbfcefc94	-1.6170831
124	0x3d81e2b2	0.06342067
125	0xbe7c661b	-0.24648325
126	0xbf0c1d2d	-0.5473202
127	0x3eb07978	0.34467673
128	0xbe45cc06	-0.1931611
129	0x3e1f1b97	0.15537868
130	0xbefa5ad6	-0.48897427
131	0xbe1796e3	-0.14803652
132	0x3bd22572	0.0064131552
133	0xbd9d25a6	-0.076731965
134	0x3e268b13	0.1626399
135	0xbf7487c5	-0.9551967
136	0x3e9f0189	0.3105586
137	0x3e299c24	0.16563469
138	0xbe32e861	-0.17471458
139	0xbdd1eb88	-0.10250002
140	0xbd83efe7	-0.06442242
141	0x3e38af4e	0.18035623
142	0x3e1f61df	0.15564679
143	0xbd839532	-0.06424941
144	0x3d6a6135	0.05722161
145	0xbf0b25d3	-0.5435459
146	0xbeac25fb	-0.33622727
147	0x3d03df23	0.03219522
148	0xbd8b4e08	-0.06801993
149	0x3eff90d4	0.49915183
150	0xbec456c4	-0.38347447
151	0xbe18fd12	-0.14940289
152	0x3e72f22c	0.23725194
153	0xbe67d631	-0.22640301
154	0xbd6e8008	-0.05822757
155	0x3ccd3cc1	0.025053384
156	0x3ec5c59e	0.38627332
157	0xbcd42ffd	-0.025901789
158	0xbd359b82	-0.044337757
159	0xbdd9ee0e	-0.106411085
160	0xbcbf9f5d	-0.02339142
161	0xbe6f8e0b	-0.23394029
162	0x3e1d1e16	0.15343508
163	0xbec71020	-0.3887949
164	0x3c0e444d	0.008683276
165	0xbea256b6	-0.3170678
166	0xbe494d2b	-0.19658343
167	0xbea5b858	-0.32367206
168	0xbe3fcf09	-0.18731321
169	0x3d1671f7	0.03672978
170	0x3f47bcba	0.7802235
171	0x3e8ef686	0.27922457
172	0xbe5361ec	-0.20642823
173	0xbf5c53b7	-0.8606524
174	0x3e18dd46	0.14928159
175	0xbdf8f680	-0.12156391
176	0x3e3c7ad0	0.18406224
177	0xbd92e890	-0.07173264
178	0x3e141417	0.14460789
179	0x3e305aa3	0.17222075
180	0xbe32e334	-0.17469484
181	0xbf6c1e61	-0.92233855
182	0xbe1b8df6	-0.15190873
183	0xbefb6afb	-0.49105057
184	0xbdf90ba1	-0.12160421
185	0x3ee6e857	0.45099136
186	0xbe84bb2d	-0.25924054
187	0xbd2a6577	-0.04160067
188	0xbe0c78f0	-0.13718009
189	0x3cbd1899	0.023083018
190	0xbf34c013	-0.7060558
191	0x3ddb3bd7	0.10704773
192	0x3e17bd97	0.14818417
193	0x3eeb8bdc	0.46005142
194	0xbebb4aa8	-0.36580396
195	0x3e3112e7	0.17292367
196	0x3e7c740e	0.24653646
197	0x3dd49d48	0.103815615
198	0xb88a6652	-6.5994114e-05
199	0xbd9585c5	-0.07300905
200	0xbe2c5833	-0.1683052
201	0x3edada88	0.4274485
202	0xbf053516	-0.5203413
203	0x3ee4ad13	0.44663295
204	0x3e59c507	0.21266566
205	0xbea9ff9b	-0.33202824
206	0x3ee00cad	0.4375967
207	0x3e2a7bb0	0.16648746
208	0x3ecedb8f	0.40401885
209	0x3e4e0fd1	0.20123221
210	0x3f052c75	0.5202096
211	0xbc8f560e	-0.017497089
212	0xbe673c4f	-0.225816
213	0xbf08fb63	-0.53508586
214	0x3e8a2f0d	0.26989022
215	0x3ea783e7	0.3271782
216	0x3e6a3819	0.22872962
217	0x3ebe7b00	0.37203217
218	0x3eb650f3	0.35608634
219	0x3e44b278	0.19208705
220	0xbf4ea00b	-0.80712956
221	0x3e269a52	0.16269806
222	0x3cedc9fa	0.029026974
223	0x3e7697f4	0.24081403
224	0x3df12a05	0.11775593
225	0xbeb5a2b3	-0.35475692
226	0xbe638bf9	-0.22221364
227	0xbe84a14e	-0.25904316
228	0xbb7b1be6	-0.003831619
229	0x3de4e241	0.11175967
230	0x3d214772	0.039374776
231	0xbd9ce15c	-0.076601714
232	0x3e183be4	0.14866596
233	0x3dbb43e4	0.091438085
234	0x3e86c296	0.26320332
235	0xbd0d134b	-0.034442227
236	0xbef4e03b	-0.47827324
237	0xbcd9e50b	-0.026598474
238	0xbe289727	-0.1646391
239	0x3ed20682	0.4102059
240	0x3d891696	0.06693761
241	0x3eabc940	0.3355198
242	0x3edc75fe	0.4305877
243	0xbd8c6933	-0.06856003
244	0x3d806aed	0.062703945
245	0xbe9ae069	-0.30249336
246	0x3e6475a4	0.22310501
247	0x3e1205c9	0.1426002
248	0x3ed05ab0	0.4069419
249	0xbe7b1206	-0.24518594
250	0x3ebe2086	0.37134188
251	0x3e95ab6b	0.29232344
252	0x3e02360f	0.12715934
253	0xbce564d4	-0.02800218
254	0xbdc70d72	-0.09719361
255	0xbc9dd8f5	-0.019268492

std.constant4 f4 [16, 16]
0	0x3eb04687	0.34428808
1	0xbe8bba7d	-0.27290717
2	0xbdb1687a	-0.086625054
3	0xbe403853	-0.18771486
4	0x3f817caa	1.011617
5	0x3f2ce8c5	0.6754268
6	0xbed42870	-0.414371
7	0xbe76f421	-0.24116565
8	0xbecc7d50	-0.39939356
9	0xbd87a87a	-0.06623931
10	0xbf0f560d	-0.5599068
11	0x3e353224	0.17694908
12	0xbf3b822e	-0.73245513
13	0xbe79f882	-0.24411204
14	0xbd87575f	-0.066084616
15	0x3ea35707	0.31902334
16	0xbe53ca47	-0.20682631
17	0xbe9c54a4	-0.30533326
18	0x3e226742	0.15859702
19	0xbbc5f136	-0.0060407175
20	0xbd1e03f4	-0.03857799
21	0x3df063d3	0.1173779
22	0xbec9292f	-0.39289233
23	0xbec58df3	-0.3858486
24	0x3b5c91b1	0.0033656175
25	0xbdbdd88f	-0.09269821
26	0x3e240032	0.160157
27	0x3e961fea	0.29321223
28	0xbda8ab22	-0.08235766
29	0xbec531c7	-0.3851454
30	0xbe8919f6	-0.2677762
31	0xbd9a2bba	-0.075278714
32	0xbe3054ac	-0.172198
33	0x3e9ced02	0.30649573
34	0x3bf45e7d	0.007457553
35	0xbeaf19ee	-0.3419947
36	0xbd426d75	-0.047467668
37	0x3e57099a	0.20999756
38	0x3f147682	0.5799333
39	0xbcbc27b3	-0.022968149
40	0xbeb385bd	-0.35062972
41	0x3ff45ad4	1.9090219
42	0xbfa95afc	-1.3230891
43	0x3c0da102	0.008644344
44	0xbf4bdc29	-0.7963281
45	0xbd3bd05a	-0.045852996
46	0xbd0bc500	-0.03412342
47	0xbe3fd9a8	-0.18735373
48	0xbebfb813	-0.37445125
49	0xbeab3ed2	-0.33446366
50	0xbe2eb851	-0.17062499
51	0xbef6e2f6	-0.48220032
52	0x3de0c885	0.10975746
53	0xbee14f89	-0.44005993
54	0xbe0f384e	-0.13986322
55	0x3d391f37	0.045195784
56	0x3d36c27f	0.04461908
57	0x3e56c810	0.20974755
58	0xbe90badc	-0.28267562
59	0x3e99aede	0.30016226
60	0x3dfa44ab	0.122201286
61	0xbdf0c1c0	-0.11755705
62	0xbee7447c	-0.45169437
63	0x3eafa96f	0.34308955
64	0xbe65806e	-0.22412273
65	0x3e08efa1	0.13372661
66	0x3d79eb29	0.06101528
67	0x3cd91f3a	0.026504148
68	0xbeaf2f2b	-0.34215674
69	0xbe881cea	-0.2658456
70	0xbcdf7e31	-0.027281852
71	0x3cd411d5	0.02588741
72	0x3e43680e	0.19082662
73	0xbeb9f7fd	-0.36322013
74	0x3ed554fd	0.41666403
75	0x3d3cf333	0.04613037
76	0x3e61954f	0.22029613
77	0xbd0bdaf3	-0.034144353
78	0xbf21b889	-0.63172203
79	0x3d860a45	0.065449275
80	0xbdcafbd5	-0.099113144
81	0x3fde0d01	1.7347718
82	0x3e173a08	0.14768231
83	0x3e088321	0.13331272
84	0xbe90511b	-0.2818688
85	0xbb4826c0	-0.0030540675
86	0xbf142175	-0.5786355
87	0x3eb3fa15	0.35151735
88	0xbefd49b0	-0.49470282
89	0x3d185b43	0.03719641
90	0xbefed183	-0.4976922
91	0xbeda30cd	-0.42615357
92	0xbeb957b3	-0.36199722
93	0x3e7be19c	0.24597782
94	0x3e5d49e0	0.21610212
95	0xbd0826db	-0.03324018
96	0x3d8f0e4a	0.06985147
97	0xbea07aa1	-0.31343558
98	0x3ec29ffe	0.3801269
99	0xbece57c2	-0.4030133
100	0xbe18b81d	-0.14913984
101	0xbef5e188	-0.4802363
102	0x3eb8320d	0.35975686
103	0x3f340b0d	0.7032936
104	0xbf088e79	-0.53342396
105	0xbc42fc62	-0.011900993
106	0xbf7f85a3	-0.9981329
107	0x3db331b4	0.087497145
108	0x3f65e430	0.8980131
109	0x3d3ad802	0.045616157
110	0x3eed8668	0.46391606
111	0x3ba66b65	0.0050787204
112	0xbda5ed7e	-0.08101939
113	0x3ea37f53	0.31933078
114	0x3f0ed772	0.55797493
115	0xbe3eed6c	-0.18645257
116	0x3f1e6dbe	0.61886203
117	0xbe058cd4	-0.13042003
118	0x3f3a6b9b	0.7282044
119	0x3ea327e8	0.31866384
120	0xbf1f4017	-0.6220717
121	0xbe53b0a3	-0.2067285
122	0x3fe57810	1.7927265
123	0x3e4c3c4a	0.19944873
124	0xba054a93	-0.000508466
125	0xbe130599	-0.14357604
126	0x3f2d92b3	0.6780197
127	0xbd80a031	-0.06280554
128	0xbecac637	-0.3960435
129	0x3ebcf2ea	0.3690408
130	0x3d86db72	0.065848246
131	0x3f37d413	0.71807975
132	0x3f3eb705	0.74498016
133	0xbe215903	-0.15756612
134	0x3ee55266	0.44789428
135	0x3f38b2c9	0.72147804
136	0x3e5e7ff7	0.21728502
137	0x3fa26b72	1.268904
138	0xbee9eb95	-0.45687547
139	0x3f2248dd	0.6339243
140	0x3e123f04	0.14281851
141	0xbe058d06	-0.13042077
142	0xbf91c235	-1.1387392
143	0xbf2f4c26	-0.6847557
144	0x3e5be283	0.21473126
145	0xbcb81715	-0.022471944
146	0xbf009694	-0.50229764
147	0x3e402796	0.18765101
148	0xbec02321	-0.375268
149	0x3f4f4548	0.8096509
150	0xbe51c13d	-0.20483871
151	0x3f41cfbd	0.7570761
152	0xbe920a67	-0.2852356
153	0xbe6b0040	-0.22949314
154	0x3f5e42b2	0.8682052
155	0x3f4809da	0.7814003
156	0xbf6a359c	-0.9148805
157	0x3d3e819a	0.046510316
158	0x3dae44be	0.08509205
159	0xbeb838d8	-0.35980868
160	0x3d1e6b43	0.03867651
161	0xbf483e33	-0.7821991
162	0xbe228952	-0.15872696
163	0x3d911197	0.07083433
164	0x3c39fecc	0.011352252
165	0xbe6e34f3	-0.23262386
166	0x3d6c7bb2	0.057735153
167	0x3ec003f1	0.37503007
168	0x3d3e9400	0.046527863
169	0xbd7dd2c4	-0.06196858
170	0xbf334b09	-0.7003637
171	0x3e7baa2b	0.24576633
172	0xbeb84a2a	-0.35994083
173	0xbd00fa2e	-0.03148859
174	0xbe11baab	-0.14231364
175	0x3ff8c840	1.9436111
176	0xbe766bc5	-0.24064548
177	0xbdcef16f	-0.101046436
178	0x3e30353c	0.17207807
179	0xbec11e5d	-0.37718478
180	0xbed00c65	-0.40634456
181	0xbe043613	-0.12911253
182	0xbeb9cc51	-0.36288694
183	0x3e3001d0	0.17188191
184	0xbb8b06e9	-0.004242767
185	0xbda181cb	-0.07886084
186	0x3ecfbf40	0.405756
187	0xbd8a0dfe	-0.0674095
188	0x3e1b5d3a	0.15172282
189	0xbeb5dcf4	-0.35520136
190	0xbe608657	-0.21926247
191	0xbe6dba30	-0.23215556
192	0x3f49309b	0.7858979
193	0x3f39aa99	0.72525936
194	0x3ec77fe5	0.38964763
195	0x3fa1050c	1.2579665
196	0x3d95916a	0.07303126
197	0xbd1ec8b2	-0.038765617
198	0x3f03defa	0.5151211
199	0xbf0cd8ed	-0.550185
200	0x3f8333e1	1.0250207
201	0xbd800e02	-0.06252672
202	0xbe71c908	-0.23611844
203	0x3f401eef	0.750472
204	0xbf9826d9	-1.1886855
205	0x3c82e164	0.015976615
206	0x3f685f53	0.90770453
207	0x3f66f473	0.9021675
208	0x3e5e4eb5	0.21709712
209	0x3ea25cbb	0.31711373
210	0xbecce30d	-0.40016976
211	0xbf41b2af	-0.75663275
212	0xbe1aeae5	-0.15128668
213	0xbebc99ba	-0.36836034
214	0xbd199073	-0.037491273
215	0xbf8ba063	-1.0908321
216	0x3f462c57	0.7741141
217	0xbe53f290	-0.20697999
218	0x3efac514	0.48978484
219	0x3ebbdbce	0.36691135
220	0xbf5077c8	-0.8143277
221	0x3ec9536f	0.39321467
222	0xbe22ca85	-0.15897568
223	0x3db27ca8	0.087151825
224	0x3e874c48	0.26425385
225	0xbe0c3443	-0.13691811
226	0xbfab3429	-1.3375293
227	0xbf2dd9a5	-0.67910224
228	0xbf1446de	-0.57920635
229	0x3f473ae0	0.7782421
230	0xbf171705	-0.590195
231	0xbf77cde8	-0.96798563
232	0xbe9efd29	-0.3105252
233	0x3f272d70	0.6530371
234	0x3f2314ff	0.6370391
235	0xbba9f505	-0.0051866793
236	0x3f4524ea	0.7700945
237	0x3e2354f8	0.15950382
238	0x3ed91232	0.42396694
239	0x3e3c8217	0.18409
240	0x3f0c5f93	0.54833335
241	0x3f422d9c	0.75850844
242	0xbd55d0bf	-0.05220103
243	0xbe323e5f	-0.17406605
244	0xbda95892	-0.082688466
245	0x3b069052	0.00205328
246	0x3f5b9e87	0.8578877
247	0x3f446faa	0.76732886
248	0xbea23aa8	-0.31685376
249	0xbdc10c44	-0.094261676
250	0x3f353025	0.7077659
251	0x3c9635e0	0.018336236
252	0x3e260502	0.16212848
253	0xbde15fc4	-0.11004594
254	0xbd83209c	-0.06402704
255	0x3e222ee0	0.15838194

std.constant5 f4 [3953, 16]
0	0xbdeeca17	-0.11659639
1	0x3e32ff17	0.17480122
2	0x3e21ec51	0.15812804
3	0x3e20f525	0.15718515
4	0xbe87d98c	-0.26533163
5	0xbb52f7af	-0.0032191088
6	0xbea15e69	-0.31517342
7	0xbdddc0b3	-0.1082777
8	0x3e30fc1d	0.17283674
9	0xbec17d71	-0.37791017
10	0x3da00c49	0.07814843
11	0xbe9353c8	-0.28774858
12	0xbe827bb6	-0.2548501
13	0xbdf784d9	-0.120858856
14	0xbcae58f3	-0.021282649
15	0xbef12033	-0.4709488
16	0xbdd30e12	-0.10305418
17	0x3dbbde06	0.09173207
18	0xbce2d73c	-0.027690522
19	0xbdde4a4f	-0.10854017
20	0x3e9ccfcf	0.30627295
21	0x3e218a6a	0.15775457
22	0xbd996aa4	-0.07491043
23	0x3db6521e	0.08902381
24	0xbd7c6d41	-0.06162763
25	0xbe458913	-0.19290571
26	0xbd470fa0	-0.048598886
27	0x3ebd2f7e	0.36950296
28	0x3e9a243d	0.30105773
29	0xbb1e622c	-0.0024167402
30	0x3c0886c9	0.008332917
31	0x3dc80162	0.09765889
32	0x3e971c6b	0.2951387
33	0xbe45405f	-0.19262837
34	0x3f16617c	0.587425
35	0xbdf6d1b6	-0.12051718
36	0x3ed48a93	0.41511974
37	0x3ea7a5ba	0.32743627
38	0x3d7defa5	0.06199612
39	0xbd85b191	-0.06528009
40	0xbe929b4b	-0.28634104
41	0x3e1a558a	0.15071693
42	0x3dca46fd	0.09876821
43	0x3ccbbad5	0.024869362
44	0xbe2fde4e	-0.17174646
45	0x3f25c6d2	0.647565
46	0xbf13cc1e	-0.57733333
47	0xbe8e0752	-0.2773996
48	0xbe0c058a	-0.13673988
49	0xbe8965ef	-0.26835582
50	0x3eb3859a	0.35062867
51	0xbdd3892d	-0.103288986
52	0x3e6fc9a0	0.23416758
53	0x3e917501	0.2840958
54	0xbe810bc8	-0.252043
55	0xbebf7b2e	-0.37398666
56	0x3d9d2ee5	0.0767496
57	0x3f26b48d	0.6511925
58	0x3f397ccf	0.7245607
59	0x3aa8076f	0.0012819598
60	0xbe91c673	-0.28471717
61	0x3f0fe71d	0.56212026
62	0xbe7a5b4c	-0.2444889
63	0x3da4aed0	0.08041155
64	0xbec6e0f3	-0.38843498
65	0xbde919f9	-0.11381907
66	0xbeb11971	-0.34589723
67	0x3e04f562	0.12984231
68	0x3eb1ac85	0.34701934
69	0x3e6ce3af	0.2313373
70	0x3ec472f0	0.3836894
71	0xbe508e4a	-0.20366779
72	0xbd8a859c	-0.06763765
73	0x3f0c690e	0.548478
74	0xbdcee1ac	-0.10101637
75	0xbe411653	-0.18856172
76	0xbe894743	-0.2681218
77	0x3ed6c613	0.41947994
78	0x3e440550	0.19142652
79	0x3caad512	0.020853553
80	0x3d43f11d	0.047837365
81	0xbe32c0e0	-0.17456388
82	0xbe94b7e1	-0.29046538
83	0xbd962f28	-0.07333213
84	0x3c8d087e	0.017215963
85	0x3e8eaa28	0.27864194
86	0x3bfe8379	0.0077671376
87	0xbdc8441d	-0.097786166
88	0xbe63a6df	-0.22231625
89	0x3e916326	0.28395957
90	0xbeb06f82	-0.34460074
91	0xbe2aa2a2	-0.16663602
92	0xbe953363	-0.29140767
93	0x3f095b07	0.5365452
94	0x3e522d78	0.20525157
95	0x3dbc4b43	0.091940425
96	0xbd1701df	-0.03686702
97	0xbd745457	-0.059650745
98	0x3e2e1c8f	0.17003082
99	0xbcc3220c	-0.023819946
100	0xbe8735f8	-0.26408362
101	0xbed6fd7d	-0.4199027
102	0x3e16a086	0.14709672
103	0x3eff4404	0.4985658
104	0xbea85137	-0.32874462
105	0xbeaee894	-0.34161818
106	0xbdf555f0	-0.11979282
107	0x3de8559d	0.113444544
108	0x3da5a9a7	0.08088999
109	0x3dad46e3	0.08460786
110	0x3e3485d2	0.17629173
111	0x3e9772bf	0.29579732
112	0xbdd532b3	-0.10410061
113	0x3e2b73e5	0.16743429
114	0x3effdd7a	0.4997366
115	0xbe79d1ed	-0.24396487
116	0x3ba72c40	0.0051017106
117	0x3e8a3b13	0.26998195
118	0x3e4af8f4	0.1982153
119	0xbdcf16ea	-0.101117924
120	0xbe03d026	-0.12872371
121	0x3e1e1bc7	0.15440284
122	0xbd2986fd	-0.0413885
123	0x3e98aace	0.29817814
124	0xbebd65d0	-0.3699174
125	0x3f11595b	0.5677697
126	0xbe83744d	-0.25674668
127	0x3eb10ff1	0.34582475
128	0x3e17c15b	0.14819853
129	0x3d46e17e	0.04855489
130	0x3decbee9	0.11559851
131	0xbec746a2	-0.38921076
132	0xbe8e4088	-0.27783608
133	0x3e875eae	0.26439422
134	0xbec128dd	-0.3772649
135	0xbd99dbb2	-0.07512607
136	0xbe975613	-0.29557857
137	0xbe28e8bb	-0.1649503
138	0xbf03f2f8	-0.51542616
139	0x3d5d32da	0.054003574
140	0x3e5dde04	0.21666723
141	0x3e160f44	0.14654261
142	0xbec4dc1a	-0.38449174
143	0xbe90aeb8	-0.282583
144	0x3e9b818f	0.30372283
145	0xbd98233b	-0.07428595
146	0xbf34dcca	-0.706494
147	0x3c4fa44f	0.012673452
148	0xbe92a8dc	-0.28644454
149	0xbea14a3d	-0.31501952
150	0xbd789f2b	-0.06069867
151	0xbc39ebfc	-0.011347767
152	0xbf492814	-0.7857678
153	0x3d0afb69	0.03393117
154	0xbedc70c3	-0.4305478
155	0x3df8bf03	0.121458076
156	0xbdf5d246	-0.12002997
157	0x3f0757d5	0.52868396
158	0x3ec80a8d	0.3907055
159	0xbeaf1edb	-0.34203228
160	0x3ecae2b7	0.39626095
161	0xbe8beace	-0.2732758
162	0x3f0d5ff6	0.5522455
163	0x3c78d574	0.01518761
164	0xbd8d2ff1	-0.0689391
165	0x3d6a11f9	0.057146046
166	0x3e8a9de7	0.27073595
167	0xbde370e0	-0.111055136
168	0xbe9c8523	-0.30570325
169	0xbee63731	-0.44963983
170	0xbd9d95dd	-0.076946
171	0xbe38585f	-0.18002461
172	0xbe60c56b	-0.21950309
173	0x3f0aee2e	0.54269683
174	0xbeb4926c	-0.3526796
175	0x3e270068	0.16308749
176	0xbea3e744	-0.3201238
177	0x3cc503b0	0.02404961
178	0x3e14db56	0.14536795
179	0x3db76863	0.08955457
180	0xbdf9cd0f	-0.12197315
181	0x3d0560bb	0.032562952
182	0x3eb501c3	0.35352907
183	0x3eae5bfb	0.3405455
184	0x3e452ea6	0.19256076
185	0x3e5ea3e7	0.21742211
186	0x3dceb4b4	0.1009306
187	0x3cdf1dd0	0.027235895
188	0xbe727fa6	-0.23681507
189	0x3ea98283	0.33107385
190	0xbf06eb2a	-0.5270258
191	0x3f03d694	0.51499295
192	0xbd8c6838	-0.06855816
193	0x3e16469c	0.14675373
194	0xbea23dad	-0.3168768
195	0x3deefee6	0.11669712
196	0x3e593336	0.21210942
197	0x3e9d5e73	0.30736122
198	0xbe840669	-0.2578614
199	0xbf3bebb5	-0.73406535
200	0x3ec042ae	0.37550873
201	0x3da07f1f	0.078367464
202	0x3e1ff40d	0.15620442
203	0x3ea0ba4b	0.3139213
204	0x3e51561b	0.20443003
205	0x3d9d6e54	0.07687059
206	0x3e55d2b4	0.20881158
207	0xbe84f833	-0.2597061
208	0xbdae2ca7	-0.085046105
209	0x3caad626	0.020854067
210	0xbe625170	-0.22101378
211	0x3cab03af	0.02087578
212	0xbe5a9506	-0.2134591
213	0x3e0c5a65	0.13706358
214	0xbecbfc92	-0.39841133
215	0x3e2ef154	0.17084247
216	0x3e0726ab	0.13198344
217	0x3e04d0de	0.12970302
218	0xbed20562	-0.41019732
219	0xbeaff29b	-0.3436478
220	0x3d4ec359	0.050479267
221	0x3eb3f6db	0.35149273
222	0xbf107aaf	-0.564372
223	0xbda886a6	-0.08228807
224	0xbe83e161	-0.25757888
225	0xbd3748c8	-0.044747144
226	0xbe9b9064	-0.303836
227	0x3da6e492	0.08149065
228	0xbe30a8c1	-0.17251875
229	0xbe7e4454	-0.24830753
230	0x3f33b06b	0.7019107
231	0x3e089aff	0.13340376
232	0x3dc80ff3	0.09768667
233	0x3e523fdf	0.20532177
234	0xbe0f23e5	-0.13978536
235	0x3dbc6619	0.09199161
236	0xbe803d63	-0.25046834
237	0x3ec108a0	0.37701893
238	0x3dd45275	0.1036729
239	0x3e4534d9	0.19258441
240	0x3e84f37e	0.2596702
241	0xbe8c38ae	-0.27386993
242	0x3e8d2c0d	0.2757267
243	0x3d166c88	0.036724597
244	0x3e3dd2b3	0.18537407
245	0x3ce32d43	0.027731543
246	0xbe71da10	-0.2361834
247	0x3d1eb422	0.038746007
248	0xbe8fbf08	-0.28075433
249	0x3e20b319	0.1569332
250	0xbf29edf3	-0.66378707
251	0x3ec86033	0.39135894
252	0xbcd20dcd	-0.025641346
253	0x3eb1c738	0.34722304
254	0x3e3772f3	0.17914943
255	0xbea013cf	-0.31265113

std.constant6 f4 [32, 1, 4, 16]
0	0xbd604bdd	-0.05475985
1	0x3e50a5a0	0.20375681
2	0x3eaf0865	0.34186092
3	0x3cf342b8	0.0296949
4	0xbebc54d9	-0.36783484
5	0xbef32a31	-0.47493127
6	0x3e1f5c8a	0.15562645
7	0xbec8bb0f	-0.39205214
8	0x3cdd1e8c	0.026992105
9	0x3cbdb120	0.023155749
10	0x3e4096c7	0.18807517
11	0xbe42bd23	-0.19017462
12	0x3ce9481a	0.028476764
13	0xbb2a5790	-0.0025992133
14	0x3e54f537	0.20796667
15	0x3db1a268	0.08673555
16	0xbdf6678e	-0.1203147
17	0x3ec7e8eb	0.3904489
18	0x3ede9e74	0.43480265
19	0xbe4b24a5	-0.19838198
20	0xbed810cf	-0.42200324
21	0xbf2a1aaf	-0.66446966
22	0x3d87087f	0.065934174
23	0xbf101a3a	-0.5629002
24	0x3d57c72a	0.052680172
25	0xbd34d6ab	-0.044150036
26	0x3e6f14e5	0.23347814
27	0xbea124cb	-0.31473383
28	0x3e54ad24	0.20769173
29	0x3c97dd68	0.018538192
30	0x3e023d76	0.12718758
31	0x3e951968	0.29120946
32	0xbe615beb	-0.2200772
33	0x3f07da31	0.5306731
34	0x3f4f9823	0.8109152
35	0xbf0ee473	-0.55817336
36	0xbf01d764	-0.50719285
37	0xbf747f31	-0.9550658
38	0x3c8341a5	0.016022513
39	0xbf3e50a0	-0.74341774
40	0x3e23b230	0.15985942
41	0xbd364ef4	-0.04450889
42	0x3f004308	0.5010228
43	0xbf094abc	-0.5362966
44	0x3e858dd5	0.26084772
45	0x3d48ede6	0.049055003
46	0x3e757c03	0.23973088
47	0x3ef2019d	0.47266856
48	0x3dce4f2b	0.10073694
49	0x3f1737c3	0.5906946
50	0x3f4a892a	0.79115546
51	0xbeb37191	-0.35047582
52	0xbef5647e	-0.47928232
53	0xbf80f0ab	-1.0073446
54	0xbd62602f	-0.05526751
55	0xbf6c96da	-0.9241768
56	0xbd292e7e	-0.041304104
57	0xbe700aca	-0.23441616
58	0x3ebdb630	0.3705306
59	0xbf0b9e11	-0.54538065
60	0x3e105e3b	0.14098446
61	0x3deae4d9	0.114694305
62	0x3e664f99	0.22491302
63	0x3f1c8971	0.6114722
64	0xbcd93681	-0.026515247
65	0x3ed01164	0.40638268
66	0x3df2270b	0.11823853
67	0xbda3caa1	-0.07997633
68	0x3d972eeb	0.07381996
69	0x3a615d4d	0.0008596972
70	0x3dde36b3	0.10850277
71	0x3eb57cb1	0.35446694
72	0x3c19c8de	0.009386269
73	0xbd7f4c05	-0.062328357
74	0xbdd80326	-0.105474755
75	0x3d261d21	0.040555123
76	0x3a7ba9ce	0.0009600193
77	0xbe12e41c	-0.1434483
78	0xbc9dfcf0	-0.019285649
79	0xbc865cc1	-0.01640165
80	0x3d82653f	0.063669674
81	0x3f157451	0.5838061
82	0x3e055fce	0.13024828
83	0xbdf1cab6	-0.11806242
84	0x3d9e0809	0.07716376
85	0x3db29acf	0.08720934
86	0x3e1912d9	0.14948596
87	0x3ec95425	0.3932201
88	0x3d206ade	0.039164416
89	0xbe19fa52	-0.15036896
90	0xbdc1cd36	-0.09462969
91	0x3d9d95e6	0.076946065
92	0xbdc1ad3a	-0.094568685
93	0xbe872f6d	-0.2640337
94	0x3c1598a0	0.009130627
95	0xbd6f07a0	-0.05835688
96	0x3e212fe8	0.15740931
97	0x3f3977a8	0.72448206
98	0x3e0b4267	0.13599549
99	0xbe7fcefa	-0.24981299
100	0x3e1ecdb9	0.15508164
101	0x3dd73f7c	0.105101556
102	0x3cbf141c	0.023325019
103	0x3ee05b5e	0.43819708
104	0x3c273659	0.010205829
105	0xbe41b9ca	-0.18918529
106	0xbd863a0c	-0.0655404
107	0x3de93a77	0.113881044
108	0xbd7022c2	-0.058626898
109	0xbe95d53d	-0.2926425
110	0x3e253ad7	0.16135727
111	0xbe0b5774	-0.1360758
112	0x3d20b2de	0.03923308
113	0x3f3a3e54	0.72751355
114	0x3d66aaff	0.05631542
115	0xbe73eb47	-0.2382022
116	0x3d4fd32b	0.050738495
117	0x3e4a11e9	0.19733395
118	0x3ab4282f	0.0013744886
119	0x3f0707e8	0.5274644
120	0xbc982c8e	-0.018575933
121	0xbea7a23a	-0.32740957
122	0xbd49e75a	-0.0492929
123	0x3db6dd41	0.089289196
124	0xbc36d4b4	-0.011159111
125	0xbe771e3e	-0.2413263
126	0x3dd5e155	0.10443369
127	0xbdc79d68	-0.0974682
128	0x3c7da01f	0.01548007
129	0x3e32b67e	0.17452428
130	0xbd28a7bb	-0.041175585
131	0x3e5ddcae	0.21666214
132	0xbe9add8a	-0.30247146
133	0x3ed51e5c	0.41624725
134	0xbe0c702f	-0.1371467
135	0xbe80e1eb	-0.25172362
136	0xba0b1ab0	-0.0005306406
137	0xbc115b3a	-0.008871848
138	0xbe1a24a8	-0.15053046
139	0x3dbce2e9	0.09222967
140	0xbe259147	-0.161687
141	0xbdb94fa0	-0.090483904
142	0xbd66141c	-0.05617152
143	0xbd64b4d8	-0.05583653
144	0xbc05d745	-0.008169
145	0x3eaa8591	0.33305028
146	0xbd5a56fd	-0.053305615
147	0x3e0ffb22	0.14060643
148	0xbe9e6c40	-0.30941963
149	0x3ecd5dce	0.4011063
150	0xbe13c8c2	-0.14432052
151	0xbeb29bf7	-0.34884617
152	0x3d2579ed	0.04039948
153	0x3d1d19fd	0.038354862
154	0xbe36c073	-0.17846851
155	0x3cab1f79	0.02088903
156	0xbe32233b	-0.17396252
157	0xbe1869b6	-0.14884076
158	0xbddf1885	-0.108933486
159	0x3e32bd10	0.17454934
160	0x3d1854e9	0.03719035
161	0x3eb9adbe	0.36265367
162	0x3dd0175d	0.10160706
163	0x3e3422bf	0.1759138
164	0xbefc17a9	-0.492368
165	0x3ee3bf3f	0.44481847
166	0xbea291d8	-0.31751895
167	0xbea79654	-0.3273188
168	0x3e0ef0f4	0.13959104
169	0x3d27dae6	0.040980242
170	0xbd928358	-0.07153958
171	0x3e1b1f90	0.15148759
172	0xbe482b80	-0.19547844
173	0xbe66d48b	-0.22542016
174	0xbe80fc24	-0.25192368
175	0x3e017de3	0.12645678
176	0x3e2e12a1	0.16999294
177	0x3eddf2f3	0.43349418
178	0x3e933f33	0.28759155
179	0x3e3ef991	0.1864989
180	0xbea5b3cc	-0.32363737
181	0x3efa39a6	0.48872107
182	0xbe51fffa	-0.20507804
183	0xbf044dd3	-0.5168125
184	0x3d4b4bdb	0.04963289
185	0x3e90bfae	0.2827124
186	0xbe75e3ad	-0.24012633
187	0x3eaf63ec	0.34255922
188	0xbeaef70b	-0.34172854
189	0xbe84fd97	-0.25974724
190	0xbe231e1f	-0.15929459
191	0x3df22487	0.11823373
192	0x3e693c6b	0.22776954
193	0x3e7909b6	0.2432011
194	0x3e10684c	0.14102286
195	0x3d62b5de	0.055349223
196	0x3e286899	0.16446151
197	0x3d83157d	0.06400583
198	0x3e468697	0.1938728
199	0xbe36dab2	-0.17856863
200	0xbe3988f3	-0.18118648
201	0xbd750635	-0.059820373
202	0xbac5b84c	-0.0015084832
203	0x3e2651d0	0.16242146
204	0xbdcd3886	-0.100205466
205	0xbd3a1f07	-0.045439746
206	0x3ed98f7f	0.4249229
207	0x3e7fb7a9	0.24972405
208	0xbcba9c2d	-0.022779549
209	0x3c186649	0.00930173
210	0x3e8dbba2	0.27682215
211	0xbd98a5bf	-0.074534886
212	0x3c766a82	0.015040042
213	0x3db87400	0.090065
214	0x3eba2fd3	0.36364612
215	0xbe1c43f2	-0.15260294
216	0xbf143993	-0.5790035
217	0xbd95ba15	-0.07310883
218	0xbdb4e1cc	-0.0883213
219	0x3e6fc20d	0.23413868
220	0xbdbf8e80	-0.093533516
221	0xbe222188	-0.15833104
222	0x3ec8b492	0.39200264
223	0x3ea1bec3	0.31590852
224	0xbf47c002	-0.78027356
225	0xbf81419a	-1.0098145
226	0xbef19dc9	-0.47190693
227	0x3db45980	0.08806133
228	0xbf3c4b13	-0.73552054
229	0x3f36d4d2	0.7141849
230	0x3f9354ec	1.1510291
231	0x3f33c433	0.7022125
232	0xbf1f5bfb	-0.62249726
233	0x3eb6874c	0.35650098
234	0xbe23e082	-0.16003612
235	0xbe74ab33	-0.23893432
236	0x3db88717	0.09010141
237	0x3f503855	0.81335956
238	0x3dbd7016	0.09249894
239	0xbf58aecf	-0.84641737
240	0xbda23482	-0.07920171
241	0xbf24b52d	-0.6433895
242	0x3e91ae8a	0.28453475
243	0x3ef4aa52	0.47786194
244	0x3e93f685	0.28899017
245	0x3f1abd46	0.6044506
246	0x3f1e6642	0.61874783
247	0x3eac7f91	0.33691075
248	0xbf49a81d	-0.78772146
249	0x3e6e6dd4	0.23284084
250	0xbf144aca	-0.5792662
251	0xbc0c39cf	-0.0085587045
252	0xbd4fe8bb	-0.05075906
253	0x3eed1492	0.46304756
254	0x3e55bdfe	0.20873258
255	0x3e9abe06	0.302231

std.constant7 f4 [64, 1, 4, 32]
0	0xbd553153	-0.052048992
1	0xbc1bf573	-0.009518969
2	0xbc5c1164	-0.013431881
3	0xbd556b5f	-0.05210435
4	0x3d811e1a	0.063045695
5	0x3e149865	0.14511259
6	0xbd0240d9	-0.031800125
7	0xbcfe15d6	-0.031016272
8	0x3e71c468	0.2361008
9	0xbd42b906	-0.047539733
10	0xbd1f67e2	-0.03891743
11	0xbd193264	-0.037401572
12	0x3dd14b77	0.10219472
13	0x3cfb6377	0.030687077
14	0x3d55587a	0.05208633
15	0xbdd3866c	-0.10328373
16	0xbd86f126	-0.06588964
17	0xbe73c3a3	-0.23805098
18	0x3e5ba0bf	0.21448039
19	0xbd5e6849	-0.054298673
20	0x3d12a169	0.035798464
21	0xbdf79412	-0.12088789
22	0xbdf8c8af	-0.12147652
23	0xbd85f1ae	-0.06540237
24	0xbda50f1c	-0.080595225
25	0x3dc6f7dd	0.09715245
26	0xbda974db	-0.082742415
27	0x3d997815	0.07493607
28	0x3d7c353f	0.061574217
29	0xbc695ef7	-0.014243833
30	0xbd0a7ea8	-0.033812195
31	0xbc6c51ac	-0.014423769
32	0xbe02ea26	-0.12784633
33	0x3da3cf88	0.07998568
34	0xbd1a9c1a	-0.037746526
35	0xbd3f9501	-0.04677296
36	0xbe8eb1d4	-0.27870047
37	0x3df2a867	0.118485264
38	0x3e565545	0.20930965
39	0xbe90b3db	-0.2826222
40	0x3f0b1504	0.5432894
41	0x3c090f44	0.008365456
42	0x3d591253	0.05299599
43	0xbdf7c8c7	-0.12098842
44	0x3de04dd8	0.109523475
45	0xbde973dd	-0.11399052
46	0xbcf1f3f4	-0.029535271
47	0xbd2c22ee	-0.0420255
48	0xbe6f471d	-0.23366971
49	0xbe8f2d06	-0.27964038
50	0x3d777216	0.060411535
51	0x3d0e58a6	0.03475251
52	0xbd8db351	-0.069189675
53	0xbda41e09	-0.08013541
54	0xbd7e927c	-0.062151417
55	0xbe3c5791	-0.18392779
56	0x3d631592	0.055440493
57	0x3ec949cc	0.39314115
58	0x3d502e6b	0.050825518
59	0x3cb87b5e	0.022519764
60	0x3d96799d	0.07347415
61	0xbcbd2a2b	-0.023091396
62	0xbde40db8	-0.11135429
63	0xbd36c15d	-0.044618
64	0x3daedc57	0.0853812
65	0x3d05c090	0.032654345
66	0xbdaabffd	-0.083374
67	0xbe5d23f3	-0.21595745
68	0xbf006590	-0.5015497
69	0xbd91f5d0	-0.07126963
70	0xbec47fc9	-0.38378742
71	0xbec3ee68	-0.38267827
72	0x3fd21782	1.6413424
73	0xbec68f51	-0.38781217
74	0xbcff0d54	-0.031134285
75	0xbe4f1ff9	-0.2022704
76	0xbc14b87b	-0.009077187
77	0xbe8c7081	-0.27429584
78	0xbe09a625	-0.13442285
79	0xbe8af517	-0.27140114
80	0xbf0d2b44	-0.55144143
81	0xbe8b6777	-0.27227375
82	0x3d300391	0.04297215
83	0x3ee20c05	0.44149795
84	0xbcde9c99	-0.027174281
85	0xbeb83215	-0.3597571
86	0xbe9be9fc	-0.30451953
87	0xbf26a4b7	-0.65095085
88	0xbea856bf	-0.32878682
89	0x3e360c89	0.1777822
90	0xbf35d29c	-0.7102449
91	0xbeb443f6	-0.352081
92	0xbe77936c	-0.2417733
93	0xbc463321	-0.012097151
94	0xbf2101cc	-0.62893367
95	0xbf0d2624	-0.5513632
96	0x3c5649c0	0.013079107
97	0x3d914650	0.07093489
98	0xbd82b830	-0.06382787
99	0x3a892100	0.0010462105
100	0xbd0ec5b0	-0.0348565
101	0xbca7cc40	-0.020483136
102	0xbd5fd150	-0.054642975
103	0xbddec2c8	-0.10876995
104	0x3d95b714	0.0731031
105	0xbd3a0598	-0.04541549
106	0xbd968724	-0.07349995
107	0x3d734da8	0.05940023
108	0x3d7d9f48	0.06191948
109	0x3afcb600	0.0019280314
110	0xbdf54c80	-0.11977482
111	0xbde79dfc	-0.1130943
112	0x3df5f394	0.120093495
113	0x3caa0960	0.020756423
114	0xbca50410	-0.020143539
115	0x3dcb5bfc	0.09929654
116	0xbc6d84c0	-0.014496982
117	0x3d127d70	0.035764158
118	0x3df6aa28	0.120441735
119	0x3c8d2b00	0.017232418
120	0x3d5c9a08	0.053857833
121	0x3da7cf40	0.08193827
122	0x3d78a958	0.060708374
123	0x3db62628	0.088939965
124	0xbd7391c8	-0.0594652
125	0x3c0c5e80	0.008567452
126	0xbdf20e30	-0.11819112
127	0xbdfbbc00	-0.122917175
128	0x3ebdfae0	0.37105465
129	0x3df70fd1	0.120635636
130	0xbe501715	-0.20321305
131	0xbdc9ac47	-0.098473124
132	0xbbe15fb9	-0.006877866
133	0x3da7bddc	0.0819051
134	0x3ce8e692	0.028430257
135	0xbe53072a	-0.20608202
136	0xbb9a7ade	-0.004714354
137	0xbd4edd5b	-0.05050407
138	0xbd1f8e48	-0.03895405
139	0x3dfe5164	0.12417868
140	0xbe9e70d8	-0.30945468
141	0x3e753185	0.23944671
142	0x3d36aabb	0.044596415
143	0xbe0fcc4e	-0.1404278
144	0xbe89a519	-0.26883772
145	0xbd23da33	-0.040003013
146	0xbd199cd5	-0.037503082
147	0xbda1296b	-0.07869228
148	0x3d699e6f	0.05703586
149	0xbd77f880	-0.060539722
150	0x3dd8fa73	0.105946444
151	0xbca50368	-0.020143226
152	0xbd466392	-0.0484348
153	0xbd13df9d	-0.036101926
154	0x3cc93e44	0.024565823
155	0x3cba880b	0.022769948
156	0xbdecb229	-0.11557419
157	0xbe326b10	-0.17423654
158	0xbe18b04e	-0.14911005
159	0xbdc5b3ff	-0.09653472
160	0x3ec9042a	0.3926099
161	0x3dacef82	0.0844412
162	0xbe89c48f	-0.26907775
163	0xbdcdc471	-0.10047234
164	0x3e3cf0fa	0.184513
165	0xbe4cacca	-0.19987789
166	0x3e38dac5	0.18052204
167	0xbd3b3a39	-0.045709822
168	0x3d63a326	0.055575512
169	0xbe01d3ac	-0.12678403
170	0xbe7cef1f	-0.24700592
171	0x3e08f3fb	0.13374321
172	0xbeb5951b	-0.3546532
173	0x3e942257	0.2893245
174	0xbd8ddb49	-0.06926591
175	0xbd57b4d5	-0.05266269
176	0xbe6b7624	-0.22994286
177	0x3d447d35	0.04797097
178	0xbec75463	-0.3893157
179	0xbdabe0c0	-0.08392477
180	0x3e001311	0.12507273
181	0xbe3debc1	-0.18546964
182	0x3e70aab1	0.23502614
183	0x3e47c54e	0.1950886
184	0xbe4f01ed	-0.20215578
185	0x3d90a0f2	0.07061948
186	0xbd4393b9	-0.0477483
187	0x3de5f761	0.112288244
188	0xbdf0d3a7	-0.117591195
189	0xbe832cbe	-0.25620073
190	0xbe1901a5	-0.14942034
191	0xbd7097d2	-0.058738537
192	0xbf937745	-1.1520773
193	0x3caf3ae9	0.021390395
194	0xbec8fd96	-0.3925597
195	0x3f140062	0.57813084
196	0x3e7be849	0.24600329
197	0xbebd85d5	-0.37016168
198	0xbeb0ace0	-0.34506893
199	0x3df047f6	0.117324755
200	0xbea26158	-0.31714892
201	0xbe6a0a1e	-0.22855422
202	0x3db732df	0.0894525
203	0x3e0abde8	0.13549006
204	0x3ea35f13	0.31908473
205	0xbefed2e6	-0.49770278
206	0xbdb3c2a9	-0.08777363
207	0x3f31a7b3	0.69396514
208	0x3c8b4bc1	0.017003896
209	0x3ea69bab	0.3254064
210	0xbe53855e	-0.20656344
211	0x3edd8963	0.4326888
212	0xbcf83ebf	-0.030303357
213	0x3e641bec	0.22276276
214	0x3d798e34	0.06092663
215	0x3d9c6c5a	0.07637854
216	0x3eca2831	0.3948379
217	0x3f84bcb2	1.0370085
218	0xbee196e9	-0.44060448
219	0xbefa911f	-0.48938844
220	0x3e4314ce	0.19050905
221	0x3cf9b6cd	0.030482674
222	0x3d7d0bf5	0.06177898
223	0x3efc81cd	0.4931778
224	0xbc7b79e0	-0.0153488815
225	0x3d23a340	0.03995061
226	0xbca9eba0	-0.020742238
227	0x3de49b1c	0.11162397
228	0x3d9e2c54	0.07723299
229	0x3da698f4	0.08134642
230	0xbcd1dc80	-0.025617838
231	0xbdfc5360	-0.1232059
232	0x3d38fc50	0.0451625
233	0x3de4ad48	0.11165863
234	0x3dde85b0	0.108653426
235	0x3c924fb0	0.017860264
236	0x3ce3b0d0	0.027794272
237	0x3aad0f00	0.0013203323
238	0xbcecb200	-0.02889347
239	0xbd1f3810	-0.038871825
240	0x3d3f8d38	0.046765536
241	0x3daa9764	0.08329657
242	0x3d9e44c4	0.0772796
243	0x3cd01610	0.025401145
244	0xbd4574e8	-0.048207194
245	0x3db7bcfc	0.08971593
246	0x3d9d6274	0.07684794
247	0xbdff75d4	-0.12473646
248	0x3db753ec	0.08951554
249	0xbdbe03f0	-0.09278095
250	0x3d8bacbc	0.06820056
251	0xbdd3ed84	-0.10348037
252	0xbde5a484	-0.112130195
253	0x3d2733a8	0.040820748
254	0x3c991ce0	0.018690526
255	0x3bcbcdc0	0.0062195957
